…
The sparsity of the dataset: 97.14403348789578%
Remain Fields: ['user_id', 'item_id', 'rating', 'age', 'gender', 'occupation', 'zip_code', 'movie_title', 'release_year', 'class']
Mon 23 May 2022 09:49:19 INFO  [Training]: train_batch_size = [32] negative sampling: [{'uniform': 1}]
Mon 23 May 2022 09:49:19 INFO  [Evaluation]: eval_batch_size = [4096] eval_args: [{'group_by': 'task', 'order': 'RO', 'split': {'RS': [0.8, 0.1, 0.1]}, 'mode': 'labeled'}]
Mon 23 May 2022 09:49:19 INFO  <MetaDataLoader.MetaDataLoader object at 0x000001B3D28F55C8>
Mon 23 May 2022 09:49:19 INFO  TaNP(
  (taskUserEmbedding): EmbeddingTable(
    (age): Embedding(62, 32)
    (gender): Embedding(3, 32)
    (occupation): Embedding(22, 32)
    (zip_code): Embedding(551, 32)
  )
  (taskItemEmbedding): EmbeddingTable(
    (movie_title): Embedding(2653, 32)
    (release_year): Embedding(74, 32)
    (class): Embedding(20, 32)
  )
  (encoderMLP2): Sequential(
    (0): Linear(in_features=225, out_features=32, bias=True)
    (1): ReLU()
    (2): Linear(in_features=32, out_features=32, bias=True)
  )
  (encoderMLP1): Sequential(
    (0): Linear(in_features=225, out_features=32, bias=True)
    (1): ReLU()
    (2): Linear(in_features=32, out_features=32, bias=True)
  )
  (zVectorGenerator): ZVectorGenerator(
    (W_s): Linear(in_features=32, out_features=32, bias=False)
    (W_u): Linear(in_features=32, out_features=32, bias=False)
    (W_sigma): Linear(in_features=32, out_features=32, bias=False)
  )
  (taNPRec): TaNPRec(
    (hiddenLinear): Linear(in_features=256, out_features=32, bias=True)
    (hiddenLambda): Linear(in_features=32, out_features=32, bias=False)
    (hiddenBeta): Linear(in_features=32, out_features=32, bias=False)
    (outputLinear): Linear(in_features=32, out_features=1, bias=True)
    (outputLambda): Linear(in_features=32, out_features=1, bias=False)
    (outputBeta): Linear(in_features=32, out_features=1, bias=False)
  )
  (aMatrix): AMatrix()
)
Trainable parameters: 138657
Mon 23 May 2022 09:49:23 INFO  epoch 0 training [time: 3.72s, train loss: 5.8302]
Mon 23 May 2022 09:49:23 INFO  epoch 0 evaluating [time: 0.09s, valid_score: 0.665900]
Mon 23 May 2022 09:49:23 INFO  valid result: 
precision@5 : 0.5194    recall@5 : 0.5194    hit@5 : 1.0    ndcg@5 : 0.5023    mrr@5 : 0.6659
…
