…
The sparsity of the dataset: 97.37277935239796%
Remain Fields: ['user_id', 'item_id', 'rating', 'age', 'gender', 'occupation', 'zip_code', 'movie_title', 'release_year', 'class']
Wed 15 Jun 2022 20:41:54 INFO  [Training]: train_batch_size = [32] negative sampling: [{'uniform': 1}]
Wed 15 Jun 2022 20:41:54 INFO  [Evaluation]: eval_batch_size = [4096] eval_args: [{'group_by': 'task', 'order': 'RO', 'split': {'RS': [0.8, 0.1, 0.1]}, 'mode': 'labeled'}]
Wed 15 Jun 2022 20:41:54 INFO  <recbole_metarec.MetaDataLoader.MetaDataLoader object at 0x00000159562C39A0>
Wed 15 Jun 2022 20:41:54 INFO  FOMeLU(
  (embeddingTable): EmbeddingTable(
    (age): Embedding(62, 32)
    (gender): Embedding(3, 32)
    (occupation): Embedding(22, 32)
    (zip_code): Embedding(523, 32)
    (movie_title): Embedding(2653, 32)
    (release_year): Embedding(74, 32)
    (class): Embedding(20, 32)
  )
  (model): Sequential(
    (0): MLPLayers(
      (mlp_layers): Sequential(
        (0): Dropout(p=0.0, inplace=False)
        (1): Linear(in_features=224, out_features=64, bias=True)
        (2): ReLU()
        (3): Dropout(p=0.0, inplace=False)
        (4): Linear(in_features=64, out_features=64, bias=True)
        (5): ReLU()
      )
    )
    (1): Linear(in_features=64, out_features=1, bias=True)
  )
)
Trainable parameters: 126049
Wed 15 Jun 2022 20:41:55 INFO  epoch 0 training [time: 1.20s, train loss: 5.6970]
Wed 15 Jun 2022 20:41:55 INFO  epoch 0 evaluating [time: 0.10s, valid_score: 0.704000]
Wed 15 Jun 2022 20:41:55 INFO  valid result: 
precision@5 : 0.5    recall@5 : 0.5    hit@5 : 1.0    ndcg@5 : 0.4981    mrr@5 : 0.704
Wed 15 Jun 2022 20:41:55 INFO  Saving current: saved\FOMeLU-Jun-15-2022_20-41-54.pth
…
