…
The number of inters: 25778
The sparsity of the dataset: 97.37277935239796%
Remain Fields: ['user_id', 'item_id', 'rating', 'age', 'gender', 'occupation', 'zip_code', 'movie_title', 'release_year', 'class']
Tue 05 Apr 2022 14:50:06 INFO  [Training]: train_batch_size = [32] negative sampling: [{'uniform': 1}]
Tue 05 Apr 2022 14:50:06 INFO  [Evaluation]: eval_batch_size = [4096] eval_args: [{'group_by': 'task', 'order': 'RO', 'split': {'RS': [0.8, 0.1, 0.1]}, 'mode': 'labeled'}]
Tue 05 Apr 2022 14:50:06 INFO  MAMO(
  (userEmbedding): MAMOEmbeddingTable(
    (embTable): EmbeddingTable(
      (age): Embedding(62, 32)
      (gender): Embedding(3, 32)
      (occupation): Embedding(22, 32)
      (zip_code): Embedding(523, 32)
    )
    (network): Sequential(
      (0): Linear(in_features=128, out_features=64, bias=True)
      (1): LeakyReLU(negative_slope=0.01)
      (2): Linear(in_features=64, out_features=32, bias=True)
    )
  )
  (itemEmbedding): MAMOEmbeddingTable(
    (embTable): EmbeddingTable(
      (movie_title): Embedding(1660, 32)
      (release_year): Embedding(74, 32)
      (class): Embedding(217, 32)
    )
    (network): Sequential(
      (0): Linear(in_features=96, out_features=48, bias=True)
      (1): LeakyReLU(negative_slope=0.01)
      (2): Linear(in_features=48, out_features=32, bias=True)
    )
  )
  (mamoRec): MAMORec(
    (hiddenLayer1): Linear(in_features=64, out_features=32, bias=False)
    (hiddenLayer2): Linear(in_features=32, out_features=32, bias=True)
    (outputLayer): Linear(in_features=32, out_features=1, bias=True)
  )
  (taskUserEmbedding): MAMOEmbeddingTable(
    (embTable): EmbeddingTable(
      (age): Embedding(62, 32)
      (gender): Embedding(3, 32)
      (occupation): Embedding(22, 32)
      (zip_code): Embedding(523, 32)
    )
    (network): Sequential(
      (0): Linear(in_features=128, out_features=64, bias=True)
      (1): LeakyReLU(negative_slope=0.01)
      (2): Linear(in_features=64, out_features=32, bias=True)
    )
  )
  (taskItemEmbedding): MAMOEmbeddingTable(
    (embTable): EmbeddingTable(
      (movie_title): Embedding(1660, 32)
      (release_year): Embedding(74, 32)
      (class): Embedding(217, 32)
    )
    (network): Sequential(
      (0): Linear(in_features=96, out_features=48, bias=True)
      (1): LeakyReLU(negative_slope=0.01)
      (2): Linear(in_features=48, out_features=32, bias=True)
    )
  )
  (taskMamoRec): MAMORec(
    (hiddenLayer1): Linear(in_features=64, out_features=32, bias=False)
    (hiddenLayer2): Linear(in_features=32, out_features=32, bias=True)
    (outputLayer): Linear(in_features=32, out_features=1, bias=True)
  )
)
Trainable parameters: 203298
