…
Remain Fields: ['user_id', 'item_id', 'label', 'age', 'gender', 'occupation', 'zip_code', 'movie_title', 'release_year', 'class']
Wed 15 Jun 2022 20:36:09 INFO  [Training]: train_batch_size = [32] negative sampling: [{'uniform': 1}]
Wed 15 Jun 2022 20:36:09 INFO  [Evaluation]: eval_batch_size = [4096] eval_args: [{'group_by': 'task', 'order': 'RO', 'split': {'RS': [0.8, 0.1, 0.1]}, 'mode': 'labeled'}]
Wed 15 Jun 2022 20:36:09 INFO  <recbole_metarec.MetaDataLoader.MetaDataLoader object at 0x0000028E39A6F9D0>
Wed 15 Jun 2022 20:36:09 INFO  MetaEmb(
  (pretrainModel): PreTrainModel(
    (indexEmbedding): Embedding(583, 8)
    (f): ModelRec(
      (userEmbedding): EmbeddingTable(
        (age): Embedding(62, 32)
        (gender): Embedding(3, 32)
        (occupation): Embedding(22, 32)
        (zip_code): Embedding(523, 32)
      )
      (itemEmbedding): EmbeddingTable(
        (movie_title): Embedding(2653, 32)
        (release_year): Embedding(74, 32)
        (class): Embedding(20, 32)
      )
      (hiddenLayer): Linear(in_features=232, out_features=32, bias=True)
      (outputLayer): Linear(in_features=32, out_features=2, bias=True)
    )
  )
  (embeddingGenerator): EmbeddingGenerator(
    (userEmbedding): EmbeddingTable(
      (age): Embedding(62, 32)
      (gender): Embedding(3, 32)
      (occupation): Embedding(22, 32)
      (zip_code): Embedding(523, 32)
    )
    (mlp): Sequential(
      (0): Linear(in_features=128, out_features=32, bias=True)
      (1): ReLU()
      (2): Linear(in_features=32, out_features=8, bias=True)
    )
  )
)
Trainable parameters: 143522
Wed 15 Jun 2022 20:36:21 INFO  epoch 0 training [time: 12.51s, train loss: 0.6533]
Wed 15 Jun 2022 20:36:21 INFO  epoch 0 evaluating [time: 0.03s, valid_score: 0.821600]
Wed 15 Jun 2022 20:36:21 INFO  valid result: 
precision@5 : 0.6207    recall@5 : nan    hit@5 : 0.9655    ndcg@5 : 0.6803    mrr@5 : 0.8216
Wed 15 Jun 2022 20:36:21 INFO  Saving current: saved\MetaEmb-Jun-15-2022_20-36-09.pth
…
